…
2025-05-28 08:43:17,449 INFO: Dataset [PairedImageDataset] - B100 is built.
2025-05-28 08:43:17,449 INFO: Number of test images in B100: 100
2025-05-28 08:43:17,464 INFO: Dataset [PairedImageDataset] - Urban100 is built.
2025-05-28 08:43:17,464 INFO: Number of test images in Urban100: 100
2025-05-28 08:43:17,476 INFO: Dataset [PairedImageDataset] - Manga109 is built.
2025-05-28 08:43:17,476 INFO: Number of test images in Manga109: 109
2025-05-28 08:43:17,718 INFO: Network [LKMamba] is created.
2025-05-28 08:43:18,927 INFO: Network: LKMamba, with parameters: 759,988
2025-05-28 08:43:18,928 INFO: LKMamba(
  (conv_first): Conv2d(3, 48, kernel_size=(3, 3), stride=(1, 1), padding=(1, 1))
  (layers): ModuleList(
    (0-3): 4 x Layer(
      (blocks): ModuleList(
        (0-4): 5 x Block(
          (norm1): LayerNorm((48,), eps=1e-05, elementwise_affine=True)
          (norm2): LayerNorm((48,), eps=1e-05, elementwise_affine=True)
          (norm3): LayerNorm((48,), eps=1e-05, elementwise_affine=True)
          (norm4): LayerNorm((48,), eps=1e-05, elementwise_affine=True)
          (attn): MixLK(
            (norm): LayerNorm()
            (proj_1): Conv2d(48, 48, kernel_size=(1, 1), stride=(1, 1))
            (activation): GELU(approximate='none')
            (a): Sequential(
              (0): LargeKernelConv(
                (lkb_reparam): DepthWiseConv2dImplicitGEMM(48, 48, kernel_size=(9, 9), stride=(1, 1), groups=48)
              )
            )
            (spatial_gating_unit): LSKblock(
              (conv0): Conv2d(48, 48, kernel_size=(3, 3), stride=(1, 1), padding=(1, 1), groups=48)
              (conv1): Conv2d(48, 48, kernel_size=(5, 5), stride=(1, 1), padding=(4, 4), dilation=(2, 2), groups=48)
              (conv_spatial1): Conv2d(48, 48, kernel_size=(7, 7), stride=(1, 1), padding=(9, 9), dilation=(3, 3), groups=48)
              (conv_spatial2): Conv2d(48, 48, kernel_size=(9, 9), stride=(1, 1), padding=(16, 16), dilation=(4, 4), groups=48)
              (conv2): Conv2d(48, 12, kernel_size=(1, 1), stride=(1, 1))
              (conv3): Conv2d(48, 12, kernel_size=(1, 1), stride=(1, 1))
              (conv_squeeze): Conv2d(2, 4, kernel_size=(9, 9), stride=(1, 1), padding=(4, 4))
              (conv): Conv2d(12, 48, kernel_size=(1, 1), stride=(1, 1))
            )
            (proj_2): Conv2d(48, 48, kernel_size=(1, 1), stride=(1, 1))
          )
          (assm): ASSM(
            (selectiveScan): Selective_Scan()
            (out_norm): LayerNorm((48,), eps=1e-05, elementwise_affine=True)
            (act): SiLU()
            (out_proj): Linear(in_features=48, out_features=48, bias=True)
            (in_proj): Sequential(
              (0): Conv2d(48, 48, kernel_size=(1, 1), stride=(1, 1))
            )
            (CPE): Sequential(
              (0): Conv2d(48, 48, kernel_size=(3, 3), stride=(1, 1), padding=(1, 1), groups=48)
            )
            (embeddingB): Embedding(64, 32)
            (route): Sequential(
              (0): Linear(in_features=48, out_features=24, bias=True)
              (1): GELU(approximate='none')
              (2): Linear(in_features=24, out_features=12, bias=True)
              (3): GELU(approximate='none')
              (4): Linear(in_features=12, out_features=64, bias=True)
              (5): LogSoftmax(dim=-1)
            )
          )
          (convffn1): GatedMLP(
            (fc1): Linear(in_features=48, out_features=48, bias=True)
            (act): GELU(approximate='none')
            (sg): Gate(
              (norm): LayerNorm((24,), eps=1e-05, elementwise_affine=True)
              (conv): Conv2d(24, 24, kernel_size=(5, 5), stride=(1, 1), padding=(2, 2), groups=24)
            )
            (fc2): Linear(in_features=24, out_features=48, bias=True)
            (drop): Dropout(p=0.0, inplace=False)
          )
          (convffn2): GatedMLP(
            (fc1): Linear(in_features=48, out_features=48, bias=True)
            (act): GELU(approximate='none')
            (sg): Gate(
              (norm): LayerNorm((24,), eps=1e-05, elementwise_affine=True)
              (conv): Conv2d(24, 24, kernel_size=(5, 5), stride=(1, 1), padding=(2, 2), groups=24)
            )
            (fc2): Linear(in_features=24, out_features=48, bias=True)
            (drop): Dropout(p=0.0, inplace=False)
          )
          (embeddingA): Embedding(32, 8)
        )
      )
      (conv): Conv2d(48, 48, kernel_size=(1, 1), stride=(1, 1))
    )
  )
  (norm): LayerNorm((48,), eps=1e-05, elementwise_affine=True)
  (conv_after_body): Conv2d(48, 48, kernel_size=(3, 3), stride=(1, 1), padding=(1, 1))
  (upsample): UpsampleOneStep(
    (0): Conv2d(48, 12, kernel_size=(3, 3), stride=(1, 1), padding=(1, 1))
    (1): PixelShuffle(upscale_factor=2)
  )
)
2025-05-28 08:43:19,107 INFO: Loading LKMamba model from /root/shared-nvme/BasicSR/experiments/045_LKMamba_x2_m2_3090x2-01/models/net_g_495000.pth, with param key: [params].
2025-05-28 08:43:19,203 INFO: Model [SRModel] is created.
2025-05-28 08:43:19,203 INFO: Testing Set5...
2025-05-28 08:43:22,851 INFO: Validation Set5
…
